translate/model.onnx (onnx, 681307 bytes, 12 tensors)

embed.weight f4 [70, 32]
00000000: f993 e23f c71e 61be 47c3 003f 62cb 8c3f
00000010: 380c 683f 4dca bcbc 3944 403f 6897 52bf
00000020: ebf7 c5be 76cd 7dbf dffc 42bd 22ec ffbf
00000030: 8956 0440 9a29 56bf ce60 463e 3489 d63f
00000040: 827b 5ebe 7467 ce3e c2dd 92bf 75bc 41bf
00000050: a7cc 9c3f d279 5d3f 02ba b43f e077 053e
00000060: 585b e9be a69c 453d 71ea b7be a775 6ac0
00000070: 7950 8bbd 5653 c9be 3cc2 e23f 02d4 633e
00000080: 4b4a 1abc 918c 48c0 1f39 db3f 4b80 d33e
00000090: a485 a8bf c642 75bf fcd4 33be e714 e63f
000000a0: f5f5 94bc 8771 b63f b0a1 36bd 5a35 6cbf
000000b0: f731 53bf 3adc 0b3f 2ec0 dbbf 948d c5bf
000000c0: 420b a6bf 1bf5 e8bf 9d14 98bf 61a0 b93e
000000d0: 5aa1 8c3f f0e7 933f 3e44 ca3f b3b9 253f
000000e0: c090 6e3f eb76 cbbf ddbd 37bf 8f84 9c3f
000000f0: 1860 013f b472 9b3f b1e2 0e40 2920 a2bf
00000100: aca6 d63e a64b 0940 2c31 3ebf 5256 acbe
00000110: f72e a2bf 27f2 e9be f6e2 2a3f 83d7 b63f
00000120: dc3a 233f 79bb 66bf 3436 3ebf 0e4c dabe
00000130: f1ee 833f 8dea d2bf 2357 e8bf 4be4 f7be
00000140: 2b78 2a3f c027 df3f 8337 643e f4be b73f
00000150: 8f1f 343e cf42 493e 0f87 0cc0 634f df3e
00000160: 9bcd c7be 3e00 6fbe b9b6 233f 8e74 063f
00000170: 84e9 52c0 7c6b dabe 4646 fa3e 8f71 503e
00000180: 6104 45bf 2ed9 af3e c4c7 2ebf b2ad f3be
00000190: 3afe 51bf 92ba 80bf a303 133e 9e65 bfbe
000001a0: b226 c5be c11c bb3f 48ad a8bf 6de1 9c3f
000001b0: 1b96 633f 25c6 b83e e236 303f 3deb 163f
000001c0: fd96 873e cdd9 18c0 531e 1ac0 efb8 dabc
000001d0: 1ea4 16bf ae26 febe 5ec9 cdbe 3551 213f
000001e0: c280 913f 8016 05bf cd34 8fbf d864 3f3f
000001f0: c8d3 0340 ec43 913f 2a5a 943f 69b5 2bbf
00000200: d02f 6bbf d9ee 8ebf cc3d b23d 4894 d4bf
00000210: 3580 d0bf 89bf a63f d8e2 a5bf 73e0 5dbf
00000220: 4078 dbbe 7a07 93bf 601e 0840 dbe0 703d
00000230: f468 143f d566 4f3f 78c2 38bf 0822 8c3f
00000240: 83ca a7be 747b 803f 72de debe 05f0 3ebd
00000250: c9bd 66bf b0b8 293f 1198 49be 0417 57bf
00000260: ef55 883f c24e 92be 53a1 aabf da1c 083f
00000270: b60a 583f c711 513f ee59 cb3e 44f6 593f
00000280: 714e be3e 945d e2bf 7b5d 21bf e4fa c73f
00000290: 9aca c73f b963 febf 3969 1c3f b3b8 9abf
000002a0: f3f0 d73d 9c3e 883f 7335 47bf 06f6 0e3f
000002b0: 41cb 1140 b627 8cbd fd8c 0b3b fe5b b3be
000002c0: 1148 ab3f 8b04 853d 8620 ce3f bb06 62bf
000002d0: cff0 adbf 0937 b8bd d514 a3be 75c8 533d
000002e0: 0b9d 8d3f 7170 b6be 046f 6fbf 662f 19bf
000002f0: f369 bdbf 0aff 89be 4f0f 593f 95a3 fb3e
00000300: 2d04 85bf a160 b3bf 020e cfbc ca6f 383f
00000310: 6890 0ac0 7c2c 24bf 7b5d f93e c1e0 583e
00000320: 606d bc3e b305 973f ae34 963f 1df3 b63e
00000330: 98db 08bf 21d3 b7bf a623 af3e 2d7a f43e
00000340: bb29 dbbe 785a f53f 7f00 d63e 6f6d 1ebe
00000350: 9fa2 c6be 0f73 e73e a7da 0f3f c58e bf3e
00000360: d893 f43e ea9b 8cbf 8e5b 05bf 7eaf a5bf
00000370: 2b01 2f3e a467 723f 97d1 8e3f f142 583e
00000380: 32d8 adbe 8893 043f f16e 97bf cb9d b63e
00000390: f842 af3f 022c 423f 5d1f 6bbf 5888 df3c
000003a0: 965f 933e 213d 163f 2ba9 623b fc30 783c
000003b0: af2c 0d3f 7609 9dbc 756e e73d aceb 3b3f
000003c0: fb39 023f 41ac d13e e146 f63f 24ac 09bf
000003d0: e677 7abf 6cbe b0bd 3fee eb3e 41dd e7be
000003e0: 63dc 2bbe 105a c5be 41fb 2a3e 7ca0 463f
000003f0: f639 423f 44c9 ed3e f732 ea3e 30cb 453e
1.7701408 -0.21984397 0.5029797 1.0999568 0.90643644 -0.023045683 0.751041 -0.8226228
-0.3866571 -0.99141634 -0.047604438 -1.9993937 2.0677817 -0.8365723 0.19372866 1.6760621
-0.21726802 0.40313303 -1.1473925 -0.7567819 1.2249955 0.8651401 1.4119265 0.1303401
-0.45577502 0.048245095 -0.35921052 -3.663431 -0.06802458 -0.39321393 1.7715526 0.22248843
-0.009417127 -3.1335795 1.7126807 0.41308817 -1.3165784 -0.95805013 -0.17561716 1.7975129
-0.018183688 1.4253396 -0.04458779 -0.9226891 -0.82498115 0.54632914 -1.7168024 -1.5433831
-1.2972186 -1.81998 -1.1881291 0.36255172 1.098674 1.1555157 1.5802076 0.6473648
0.9318962 -1.5895666 -0.71774083 1.2227954 0.5053725 1.214438 2.2325861 -1.2666065
0.41924036 2.1452422 -0.7429378 -0.33659607 -1.2670583 -0.4569256 0.66752565 1.4284519
0.6376169 -0.9012981 -0.7430146 -0.4263615 1.0307294 -1.6477829 -1.8151592 -0.4841636
0.6658961 1.7434006 0.22286801 1.4355149 0.17590164 0.19654392 -2.1957433 0.43615255
-0.39024052 -0.23339936 0.6395069 0.525216 -3.2955027 -0.4266013 0.4888174 0.20355819
-0.76959807 0.34345382 -0.6827357 -0.47593457 -0.82028544 -1.0056937 0.14356856 -0.37382215
-0.38506085 1.461815 -1.3177881 1.2256294 0.8890092 0.36088672 0.68833745 0.58952695
0.26482382 -2.3882935 -2.4081008 -0.026699511 -0.5884417 -0.49638885 -0.40192693 0.6301454
1.1367419 -0.5198746 -1.1187989 0.7476325 2.059801 1.1348853 1.1590016 -0.67073685
-0.9186983 -1.116664 0.08703193 -1.6607752 -1.6289126 1.3027202 -1.2959852 -0.8667061
-0.4286518 -1.1486657 2.126854 0.05880819 0.57972646 0.81016284 -0.72171736 1.0947886
-0.32771692 1.0037675 -0.43529087 -0.04661562 -0.9013334 0.66297436 -0.19686915 -0.84019494
1.0651225 -0.28575712 -1.3330482 0.53169024 0.84391344 0.8166775 0.39717048 0.85141397
0.3716922 -1.7684808 -0.63033265 1.5623441 1.5608704 -1.9874183 0.6109806 -1.2087616
0.10544004 1.0644107 -0.7781593 0.5584415 2.2780306 -0.06843512 0.0021293752 -0.35031122
1.3381368 0.06495007 1.6103675 -0.8829152 -1.3589114 -0.08994872 -0.3185183 0.051704843
1.1063551 -0.3563266 -0.9352877 -0.5983795 -1.4797958 -0.26952392 0.84788984 0.4914824
-1.0391899 -1.4013864 -0.025275234 0.72045577 -2.1650639 -0.6413038 0.48704132 0.21179487
0.36802197 1.1798614 1.1734827 0.35732356 -0.53460073 -1.4361306 0.34206885 0.47749463
-0.42805275 1.9168234 0.41797253 -0.15471433 -0.38795945 0.4520497 0.5619301 0.37413612
0.47769046 -1.0985081 -0.52092826 -1.2944181 0.1709029 0.94689393 1.1157712 0.21119286
-0.33954006 0.51787615 -1.1830732 0.3566726 1.3692312 0.758484 -0.9184473 0.027286693
0.28783864 0.58687025 0.0034585695 0.015148398 0.55146307 -0.01916955 0.11300365 0.7340648
0.5086972 0.40951732 1.924038 -0.5377829 -0.978392 -0.0863007 0.46080205 -0.4528599
-0.1678329 -0.38545275 0.16697408 0.7758863 0.7586969 0.46442616 0.45742008 0.19315791

ff1.bias f4 [256]
00000000: 9741 1dbd 1d15 2abd 0c94 2f3d 3dc0 95bd
00000010: 39c4 2cbe 64dd 98bd 7b66 24be 8e81 44be
00000020: 95cb 103d 5e0b 8c3d 66c0 09bd 1b27 35bd
00000030: 4a1a 8fbe fa16 b8bd c39a e6bd fc2a abbe
00000040: 5666 6c3d ed5e d13d dfd2 1e3d 5e95 27be
00000050: 044a abbe 1765 03be 6ea0 dabe da05 ca3c
00000060: 3118 043e 6196 19be 9d76 67be 2960 dcbe
00000070: 1f9a 87bc 89ad 6abe c2ad 18bf 99e1 d9bd
00000080: 760e 50be f05c 89bd d4b5 0ebe 3412 96bd
00000090: 93cf 98bd 599f 96be 2a36 dfbb 41e7 a2bd
000000a0: f3dc 88be 2098 bf3d e83f 70be 3ec5 223c
000000b0: 4ef3 12be 62b2 7f3d a73b d23d 06c6 44be
000000c0: 9f11 013e 068e acbd 62ff 013d 385e 94be
000000d0: d8d2 a9be 7dc0 2fbe 5ffe 66be 93ae 61bc
000000e0: 876e 27bd 3786 03be 9db4 fc3d 2eae 063c
000000f0: d31a 8fbe d195 87bc 6f38 45be 4553 b2be
00000100: 1508 27be f84d fc3d 4abd 91be 7bbb 48be
00000110: 0596 f13b 7d53 00be b399 033e 950f 85be
00000120: bd8f 44be b2ca 6c3d 1f33 36be 0ded c93d
00000130: f295 a83d c42b e2bd 26a1 5b3d 32c5 f3be
00000140: 6ee0 aebd d6d8 ae3d 1f8d a03d be10 3cbe
00000150: f910 6bbe d973 63bd bb6c 45be 098c e4bd
00000160: cc53 8cbe a036 af3d 5645 3dbe 52c2 133d
00000170: 9608 d63d fc14 353d 0730 6fbd 2fa5 09be
00000180: 114a ddbd b8ac 1bbe 1a33 e2bc 4c6a 0cbe
00000190: 7ed9 90be b91f 1abe 6910 083d edb9 2cbe
000001a0: 3355 083d f029 25bc 14b0 edbb 77cd 8dbe
000001b0: 4e0c c6bd 9f45 a73c c6e4 fcbe e154 bdbe
000001c0: a386 f2bb 94cd 31be 8abb c03d 2ba8 94be
000001d0: 5ce9 87be e622 95be 3ed3 8dbd 9963 d3bd
000001e0: ec80 7fbd 118d 8cbe dc0e b5be 877a 26be
000001f0: 7960 58bd af7d 8bbe a86b d93d 9b3f 16be
00000200: 141b 8fbe 2956 5f3d 51ce 5bbd 1ef2 03be
00000210: b9cc 8abd c1a0 ecbc a91c f23c 1720 56be
00000220: f9f0 1fbe cc4a 46be b757 533d 9927 70be
00000230: 73e9 2fbe e6a5 24bf c783 02be 0624 56bd
00000240: f7c5 94bd f3d5 93be 1bff 093d a523 3abb
00000250: 99cf c8be fb43 5ebe 0d06 573e 2160 b1bd
00000260: af74 583d 76c1 4f3d 7fc9 16be 3650 3239
00000270: d574 3bbe 8e40 a6be fbf4 99bd 8a92 1dbe
00000280: 1ee2 713b 9030 98be ecbd df3d 050a 90bd
00000290: beba 01be bc10 3abf 9c87 4abe 3866 54bd
000002a0: 58e4 3abe e719 953d e732 e73d 94ce 26be
000002b0: f2e0 ab3d 7a09 bc3d 99cf 4dbe 5e00 29be
000002c0: dbef 80be 2c4c 7a3d c316 833c 4510 8dbb
000002d0: e990 58be 5775 b53d aa3b 433c 6697 90be
000002e0: 26c4 e23d 24c2 2abe 41ec 313d fcea 56bc
000002f0: f2be 1abe 24d7 4f3d 0660 4bbe be67 c8be
00000300: 7f15 a1be 1261 543d ca6a 2ebf 02a1 acbe
00000310: 129b 95bd 7453 86be 3907 103d e8f2 953d
00000320: 251d b2bd fd64 4abe d00b 583d e394 34be
00000330: b839 32bd 0da3 d6bd 44c2 f5bd 652f 86be
00000340: 0cd9 b93d d124 dbbd 9eee e4bc 9377 3abe
00000350: ea0b cdbe d079 a3be f836 9fbc 6e46 73be
00000360: c888 413c f01b fb3d 5015 80be d68d 3cbd
00000370: 614b 74be 289b 0cbe 8086 38bc 90d0 90bd
00000380: 23ce a3bd 1fa1 4dbe 7eb7 52be 471f 68bc
00000390: 90aa 90bd 6ae0 ea3d 3b31 12be 7d39 7bbe
000003a0: a224 8cbd e7ff 023e 6390 2bbd 26aa 083d
000003b0: 8908 33bf 9e56 f3bd 5a38 d6bd 119c f4bc
000003c0: 6e32 4dbe 1e8b 6fbe 8e1f c73c a369 13be
000003d0: 1e49 783c 09c1 8cbe 7bfe 95be c1bb 32bd
000003e0: f092 54bd 3db4 bc3d c92f cb3d ef03 703d
000003f0: 915c b4bd d6e1 f0bd f339 65be 5a40 f33d
-0.03839263 -0.04152404 0.042865798 -0.07312057 -0.16871728 -0.07464102 -0.16054718 -0.19190046
0.0353504 0.068381056 -0.03363075 -0.044226747 -0.27949744 -0.089887574 -0.11259987 -0.33431232
0.057714783 0.10223184 0.03877532 -0.16365573 -0.33454907 -0.12831531 -0.42700523 0.024660993
0.12899853 -0.14998771 -0.22603841 -0.43042114 -0.016552983 -0.22917761 -0.59640133 -0.106387325
-0.20318016 -0.067071795 -0.1393655 -0.07327691 -0.07461467 -0.29418448 -0.006811877 -0.079542644
-0.2673107 0.093551874 -0.23461878 0.0099347215 -0.14350626 0.06242598 0.10265284 -0.19216165
0.12604378 -0.08425526 0.031737693 -0.28978133 -0.33168674 -0.17163272 -0.22557972 -0.013774532
-0.04087689 -0.12844168 0.12339137 0.008220239 -0.27950153 -0.01655093 -0.19259809 -0.34829155
-0.16311677 0.12319559 -0.2846473 -0.19602768 0.00737262 -0.12531848 0.128516 -0.2598845
-0.19195457 0.057810493 -0.17792939 0.09859667 0.08231725 -0.11043504 0.05362048 -0.47611386
-0.085389 0.08537452 0.07839417 -0.18365762 -0.22955693 -0.055530403 -0.19279759 -0.11159522
-0.27407682 0.08555341 -0.18483481 0.03607399 0.104508564 0.044209465 -0.05839541 -0.13441919
-0.10805143 -0.15202606 -0.027612258 -0.13712424 -0.28290933 -0.15051164 0.033218775 -0.168678
0.033284377 -0.010080799 -0.007253656 -0.2769582 -0.09670316 0.02041894 -0.4939329 -0.3697882
-0.007401304 -0.17363578 0.0941077 -0.29034552 -0.26545227 -0.29128188 -0.06925057 -0.10321731
-0.06237881 -0.27451375 -0.353629 -0.16257678 -0.05282638 -0.27244326 0.10616237 -0.14672701
-0.27950346 0.054525528 -0.053663556 -0.12885329 -0.06777329 -0.028885247 0.029554682 -0.20910679
-0.15619268 -0.1936447 0.051597323 -0.23452605 -0.17178898 -0.6431564 -0.12745582 -0.05228045
-0.07264321 -0.28874168 0.033690553 -0.0028402593 -0.39220884 -0.2170562 0.20998402 -0.08660913
0.052845653 0.050721608 -0.14725302 0.00017005284 -0.18306287 -0.32471126 -0.075174294 -0.15387931
0.0036908458 -0.2972455 0.109248966 -0.07033161 -0.12668893 -0.72681785 -0.19778293 -0.051855296
-0.18251169 0.07280331 0.11289006 -0.16289741 0.08392514 0.09181495 -0.20098723 -0.16504046
-0.25182995 0.0611078 0.016002065 -0.004304918 -0.21149029 0.088602714 0.0119160805 -0.28240508
0.110725686 -0.16675621 0.0434382 -0.013117548 -0.15111902 0.050742283 -0.19860849 -0.3914165
-0.31461713 0.051850386 -0.681317 -0.3371659 -0.07304968 -0.26235545 0.035163138 0.07321721
-0.08696965 -0.19765086 0.05274564 -0.17634921 -0.043512076 -0.10480318 -0.11999944 -0.26208034
0.090746015 -0.107003815 -0.027945813 -0.18209676 -0.40048152 -0.31928873 -0.01943539 -0.23757336
0.011812396 0.12261188 -0.2501626 -0.046033703 -0.2385688 -0.13731062 -0.011262536 -0.0707103
-0.07998302 -0.20080994 -0.20577809 -0.014167613 -0.07063782 0.11468585 -0.14276592 -0.24533649
-0.06842925 0.12792931 -0.041885745 0.03336539 -0.699349 -0.11881755 -0.10459967 -0.029859575
-0.20038769 -0.23392913 0.024307039 -0.14395766 0.015154151 -0.27491024 -0.29295716 -0.043636087
-0.051897943 0.09214065 0.09921224 0.0585975 -0.08806718 -0.11761825 -0.22385387 0.118775085

ff2.bias f4 [70]
00000000: 879f e23d 2ff7 02be f952 a5bd a8c3 a6bd
00000010: a418 003e e621 50be 1b12 01be c5f9 88bc
00000020: 2f01 1abe f202 17bd bf15 fbbd 5925 8fbc
00000030: f4d2 c93d 506b dfbc 5b66 e4bc e7f5 293e
00000040: 3752 87ba 8e55 4dbe e412 223c ffdb 27bd
00000050: 3f9f 383c a4c8 a33c 716d a9bd d446 043d
00000060: 9d29 a3bd c77d 8cbd 840d 02bd 7f21 82bd
00000070: b40e 00be 6364 d5bd b6fb c1bb d5cb 65bd
00000080: d848 6bbd fbd9 b63c de5a d2bb 2bd4 34bd
00000090: 12a6 e1bd fbad 10bd 7cbc 30bd 2cae f5bd
000000a0: 45f0 9cbd cd93 39bd c75d dabd a433 90bd
000000b0: 3c86 1bbe e4cf 83bd c544 d0bb 567a 5bba
000000c0: 3d7d b4bd c423 19be dbdc cebc 5bad 08be
000000d0: afc4 29bd cb59 d6bd 28c6 08be 7a88 8dbd
000000e0: 875a c6bd d94b 25be 82cd b4bd 9424 b7bd
000000f0: 6bd6 0dbe 1831 18bd 550b 02be c90f 17be
00000100: 7184 3ebe 2556 29bd c1f6 233a 934b b6bd
00000110: 70bf 5abd 40fe 26be
0.11065584 -0.12789606 -0.080724664 -0.08142787 0.125094 -0.20325431 -0.12604563 -0.016720662
-0.15039514 -0.036868043 -0.12260007 -0.017473863 0.09854689 -0.02727285 -0.027880838 0.1659771
-0.0010324185 -0.20052168 0.009892199 -0.04098129 0.011268436 0.019993134 -0.082728274 0.03229411
-0.079669215 -0.068599276 -0.03175117 -0.06354045 -0.12505609 -0.10419538 -0.005919899 -0.056102592
-0.057442516 0.022320738 -0.0064195236 -0.04414765 -0.110180035 -0.03532217 -0.043148503 -0.11996111
-0.07663015 -0.04530697 -0.10662418 -0.070411 -0.15187925 -0.06436136 -0.006355854 -0.00083724165
-0.0881295 -0.1495505 -0.025251796 -0.1334738 -0.041447338 -0.104663454 -0.1335684 -0.069107965
-0.096852355 -0.16142215 -0.0882826 -0.089425236 -0.13851325 -0.037156194 -0.12699635 -0.14752115
-0.1860521 -0.04134192 0.0006254726 -0.089011334 -0.053405225 -0.16307926

148 f4 [3]
00000000: 0000 803f 0000 803f 0000 0040
1.0 1.0 2.0

191 f4 [2, 384]
00000000: 6770 e9be c830 45bf 5ad2 e9be 43a3 8fbe
00000010: 3143 62bd 9962 f0be fdae 24bf 5b24 9f3e
00000020: d69c 593e 6635 40bf 1ef7 55be b679 99be
00000030: 2a47 8dbe bb8f 04bf 5cf4 efbd bb18 05bf
00000040: b291 8c3e 5057 5cbf 8470 ae3e c587 2a3e
00000050: cc31 10bf 90a7 163e ebba 883d 1c49 a23d
00000060: b307 35be b00b 2d3d 5c83 b3be 22bd 86bd
00000070: 1561 38bc 3ab3 89bf ca0a e53d afa7 6dbe
00000080: 8f33 2ebe 390c c3be cd6c 90be e4ce 87be
00000090: 7ab3 aebe 17b5 63be 7152 453e 4477 81be
000000a0: b0ac ecbe ec44 77be 6dc6 c9be 1c1d 09bd
000000b0: c6a8 c73d a952 ffbd 5e77 aebe ce09 b8be
000000c0: 392e 41be ad4a 45bd 4db8 e5be c00d 5bbe
000000d0: 6601 02be 51f7 37bf 90a5 11bf 1ed8 95be
000000e0: 3310 e7be 9dfc 3abe d262 ffbd ad83 2f3e
000000f0: b2fd a2bc 2354 463d 74fd 3abe fdf9 56be
00000100: 038e 87be c12c 5abe 833d b5be 3d9e 133e
00000110: a57b b9bd 8b2e 18be 0014 9638 3ef7 5b3e
00000120: 7f54 34be 6e93 713e 48c2 7cbe 293a 19be
00000130: 42bc febe 48bf 28be eac7 2cbe 2f33 9f3d
00000140: 6747 6e3d 756f fc3d 3f93 edbd d535 f9bd
00000150: 1e30 f83d 81b3 86be 66f5 08be 03cc 16bd
00000160: e12a 11bf db3e 0abd a16d a33e b0da cfbe
00000170: 96b5 26be 7edc 96be df5f 07bf 3f2f d63d
00000180: 1e79 03bf b2fb 8ebe 6b29 94be 334d dfbe
00000190: d451 2bbd a680 dcbe 7763 c2be 7689 47be
000001a0: e781 c1bd a84c 77be be9f a3be 608a 963e
000001b0: 46ad 26bf 0965 9cbe 7b79 54bd 03be 22be
000001c0: fa2c 96be d742 14be 1933 47be a17a 0abe
000001d0: c3ee 5bbe 89f8 84bd 46da eebe 892c 04be
000001e0: 3f24 49bc 8cc0 6c3e 30d8 af3d 1847 84be
000001f0: 3f61 3abe 92d9 92bd bd55 8ebe dea1 52bd
00000200: 1c86 8e3e 4152 6bbc 1edc 45be 1f46 9ebc
00000210: 78de 7bbc dd9c e03d 44e5 423e b27f 4ebd
00000220: 84b6 e9bd f1ae 433d 7556 a6bd 27a0 753d
00000230: 04ec e83d 7666 893b 5064 833d 922e 903e
00000240: d5bf a73d 0c9d c5bd a018 3e3e 4ddc 073e
00000250: a837 023e 835b 24be d5ec dcbd fdb6 f03c
00000260: b8ea c73d af05 2fbd 4f70 8bbc 64c4 5fbd
00000270: 7f4b 9b3c 7a8b ce3d 7ee1 643d e661 013e
00000280: ef49 dc3d 4b29 9ebd 476d 1a3e cc98 9a3e
00000290: 591f 1bbe 4979 1b3d d09e aabd 83d7 84bd
000002a0: 224e bf3d 6c24 26bd 42ee febd d83f 8dbd
000002b0: 4afb 513d 5d60 01be bfc2 4bbd 2e6f 58bd
000002c0: 0bda ccbd 408a 14bc 78af 193e 1a8c 16be
000002d0: 74d0 c93d 72bc 9e3c 7f89 033e 4599 e73d
000002e0: 8ae2 4b3c 92e0 bdbc 0f93 41be 4e9c 4a3d
000002f0: 2451 28be f617 503d eed2 ee3d a0af 86bd
00000300: a7ca 14bf fa3d 08bf c058 ebbe 6961 6ebe
00000310: ea17 7fbd 520b 02bf 6dca 16bf d580 e23e
00000320: a6d8 573e 9d87 17bf ea4a 92be 249c 97be
00000330: c6bc 44be 256f 0ebf 7c52 8fbe 0fae 16bf
00000340: 44a6 933e bbdf 64bf ae8d 923e 1e89 093e
00000350: 7e84 16bf 641d 043e 45d0 cdbd ab2e 023e
00000360: 9a8e 8ebe afee d53d e037 15be bcb7 8fbe
00000370: fb12 9dbc 2aec 96bf fc59 5c3e 27ba 1bbd
00000380: 71b4 473d 0402 ebbe a50b aebe 7576 62be
00000390: 9968 c6be 1b14 c6be 84ff a13b 94b1 83be
000003a0: ebcc f2be a273 dabd 4e94 afbe abdd 1ebe
000003b0: 2379 8d3d 0b8e 88be ae48 51be 8230 bebe
000003c0: af46 08be 1421 1a3d 8167 20bf 58d3 1ebe
000003d0: 2df4 603d 74c8 fbbe 393a ffbe 8ffd 99be
000003e0: bcb4 9abe 7f75 84bd 4b84 7ebe b409 1b3e
000003f0: b30a 9fbd aa1d 833d de14 31be 2045 9dbe
-0.4559357 -0.7702756 -0.45668298 -0.28054246 -0.05523986 -0.46950224 -0.6432951 0.31082425
0.21251234 -0.7508148 -0.20895049 -0.2997567 -0.27593356 -0.51781815 -0.1171653 -0.5199086
0.27454907 -0.8607073 0.34070218 0.16653354 -0.56325984 0.14712358 0.06676277 0.07924101
-0.17678718 0.042247474 -0.35061157 -0.06579043 -0.011253615 -1.0757821 0.111836985 -0.23208497
-0.17011856 -0.38095263 -0.28208008 -0.26525033 -0.34121305 -0.22237049 0.1926973 -0.25286305
-0.462255 -0.24147385 -0.394092 -0.033475026 0.09748988 -0.12466938 -0.34075445 -0.3594498
-0.18865289 -0.04816692 -0.44867173 -0.21391964 -0.12695846 -0.7186175 -0.56893253 -0.29266447
-0.45129547 -0.18260427 -0.1247002 0.17140074 -0.019896362 0.048420083 -0.18260747 -0.209938
-0.26475534 -0.21306135 -0.35398492 0.14415832 -0.090567864 -0.14861505 7.156283e-05 0.21481034
-0.17610358 0.23591396 -0.24683487 -0.14963593 -0.49753004 -0.16479218 -0.16873136 0.07773434
0.058173563 0.12325946 -0.116003506 -0.12168471 0.121185526 -0.26308826 -0.13374862 -0.036815654
-0.56706053 -0.03375135 0.31919578 -0.40596533 -0.16280207 -0.29465097 -0.5288066 0.1045823
-0.51356685 -0.27926403 -0.2893785 -0.43613586 -0.041826084 -0.430669 -0.3796651 -0.19486031
-0.09448605 -0.24150336 -0.3195781 0.29402447 -0.65108144 -0.30545834 -0.051873665 -0.15892796
-0.2933119 -0.14478622 -0.19453086 -0.13523342 -0.21477799 -0.06492717 -0.46650904 -0.12907614
-0.012276708 0.23120326 0.08586156 -0.2583549 -0.18201159 -0.071704045 -0.27799788 -0.0514239
0.27836692 -0.014362873 -0.1932225 -0.019320546 -0.015372865 0.10967419 0.1903277 -0.05041475
-0.11411765 0.04777426 -0.08121959 0.059967186 0.113731414 0.0041931225 0.064156175 0.2816053
0.08190886 -0.09649095 0.18564081 0.13267632 0.12716544 -0.16050534 -0.107873596 0.02938413
0.09761566 -0.04273003 -0.017021326 -0.054630652 0.018956898 0.10085197 0.05587911 0.12635002
0.10756289 -0.0772272 0.15080748 0.301947 -0.15148677 0.037957463 -0.08331072 -0.06486418
0.093410745 -0.04056208 -0.12447788 -0.06896943 0.05126504 -0.12634416 -0.04974627 -0.052840404
-0.10002526 -0.0090661645 0.15008342 -0.14701882 0.098542124 0.019376967 0.1284542 0.11308531
0.012444148 -0.023178373 -0.18903755 0.04946547 -0.16437203 0.0508041 0.116613254 -0.065764666
-0.5812172 -0.5321957 -0.45966148 -0.23279347 -0.062278666 -0.50798523 -0.5890263 0.44238916
0.21078739 -0.59191304 -0.2857278 -0.29611313 -0.19212636 -0.55638343 -0.27992618 -0.5885934
0.28837788 -0.89403886 0.28623718 0.13431212 -0.5879592 0.12901837 -0.1004949 0.12713115
-0.2784317 0.10445916 -0.14572096 -0.28069866 -0.01917409 -1.1790822 0.21518701 -0.038019326
0.048756067 -0.45899975 -0.3399326 -0.221155 -0.38751677 -0.38687214 0.00494379 -0.2572142
-0.47421965 -0.106665865 -0.34292835 -0.15514247 0.069078706 -0.2667087 -0.20437881 -0.37146384
-0.13308214 0.037629202 -0.62657934 -0.15510309 0.054920364 -0.4917637 -0.49849108 -0.30076262
-0.30216014 -0.06467723 -0.24855153 0.1514042 -0.077657126 0.06402142 -0.17293116 -0.307168

192 f4 [2, 192, 32]
00000000: 5938 6c3f f587 2abe 28b4 fd3d 5d5a e43e
00000010: de54 2ebf d025 9e3e 17f5 63bf f869 7a3e
00000020: 2eda 023e 7259 473e 277e 5b3d ec21 e33b
00000030: 164e 22be e044 9c3e f5fd 3dbd 3395 6bbf
00000040: 06b4 173e 1598 a53e 7033 36be 9042 15bd
00000050: 9b86 dd3e 48a3 16bf fc4c 1ebe c6e7 a1bd
00000060: 2d45 8c3e fc70 07be 7acf 1c3f 4ef6 f9bd
00000070: 3fd4 503f 0afd 9f3e cdd9 b2be e6c9 033f
00000080: 8ca7 903e 7d1d 6cbe 67ca 08bf a643 cc3e
00000090: 17a5 703e a412 273f 7df5 ff3e dd9e 173f
000000a0: 0f22 0d3f 07a0 a4be dd8b fd3e b948 1bbe
000000b0: db69 673e afb8 eb3e df06 d13e a917 433d
000000c0: 5785 c33d f78f ba3f 1eec 10bf 350f b83d
000000d0: e602 41be 9926 b73e 7319 023e 5761 e83e
000000e0: 72f0 8c3e afb3 213e 641f 66bf 04bc 043f
000000f0: 76ec 8e3e 905b aa3e 8a93 06bf a713 a1bd
00000100: cca8 5c3e 0d4f d2be 5656 733d 4cc9 9e3e
00000110: 7507 ca3d d8aa abbe 43c9 163f 8164 57be
00000120: e11c ed3d 35a9 1fbf f367 863d 9b0a 7b3e
00000130: 763b 2fbe 5c64 dfbe c78f 83bd 9e90 e6bd
00000140: af83 3bbd 813a 963e 7e60 dabd ec29 083f
00000150: 6ae5 603c af81 cfbe 00f8 9fbe ffe0 943e
00000160: fa54 43bc bcf1 51be a8b3 39be cf23 993e
00000170: d79f 8c3e 73a9 debd 5889 4cbd c32e 0a3e
00000180: 1a10 e63d e804 86bf 8f39 ddbe 212d 933e
00000190: 1591 40bf fa13 2dbf 830d ddbe ae17 8e3e
000001a0: ae79 89bd 790d 08bf 9745 9f3e 486f 9dbe
000001b0: 9212 09bf 2d6a 6abc ab3e 813c 7048 5d3d
000001c0: 770d afbe e718 e13e 9b2a bcbd cde9 dc3d
000001d0: 1cad acbe 79b0 07be ce22 4e3e f58c 85be
000001e0: 7188 743f 6ed6 2a3e 3179 2fbf a8bf 01be
000001f0: 7e4f 39bf c949 d83e c288 e0bd 0598 04bf
00000200: 1b09 d0be 195d b5be 2451 4cbf bbb5 373e
00000210: 8892 87bd 4b95 0fbe 6f5f e2bc e42b 4ebf
00000220: 2b34 b9be 6835 b63e ae2b 083e f45d 1ebf
00000230: 59ae a0be d53e 233e 1f6c 213f 3421 2f3f
00000240: a2e7 f33d bb10 e93d bb97 0b3e 8761 db3e
00000250: 1537 58bd 9ef1 873e 42ba 053f cbeb d93c
00000260: 84e7 073e ddda 1bbf 85a1 283e 6cda 5ebb
00000270: 1f5c cebe 5d96 ca3e 2501 983f df60 343d
00000280: 1a16 993e 5816 68be 5472 0cbf deb8 23bd
00000290: 5cc3 d7be 8017 083d 533b 873d 2ec4 1cbf
000002a0: 5d03 2abf 0173 8a3d dfc5 663c 599c acbe
000002b0: 81c3 7ebe aba7 16be 5eda 583e 3793 b1be
000002c0: a0fa 4d3d a980 33bd 5bd9 5f3e bbff d03e
000002d0: e338 a83d 54a2 47bf 0256 35be 84be 77bd
000002e0: 0e11 15be c8d6 16bf f298 813d b740 e5bd
000002f0: be91 0d3f ea45 fcbc 3ded 193e f3ab 293f
00000300: e2be 0d3d ead8 be3d e645 983e 9028 b73e
00000310: 0ce5 a2be 38ac 7cbe b2c7 8fbe 945a 333d
00000320: e2dd 5cbe ee1b afbe 235c 5dbe a172 ecbd
00000330: 0a79 3e3e 6d57 2bbe cb4e b2bd 1daf af3e
00000340: 005e 58be 2884 143d 43b2 643e 5748 c43e
00000350: e239 b3bd 7a93 14bd cd22 8dbe b43a d2be
00000360: 290c d13e 7ea7 fb3d 5b4e e3bd 1522 e7bd
00000370: d31e 973e 861c 75be 0a80 0dbe a5dc 1e3d
00000380: 6ef1 c23d 0a7b c8be 6624 093e b46e 3fbe
00000390: 98a9 ad3d b9ce a4bd f6ef a73e 99b1 e0ba
000003a0: 1947 e23d 1cc0 c33e e9e5 b83e cb02 1abd
000003b0: 873f b4bd 3918 d4be 72b6 383e 5eb2 343f
000003c0: 8969 bdbe beb3 84bf c19e d13d ab45 6ebf
000003d0: 5cad 10be 897f 6fbd 3827 f5ba 1de4 f7bd
000003e0: e671 5cbe d89b 4b3f 5a75 553e 9a63 b9be
000003f0: d94a a9be 9b0a 08be bcde 1abb 96a2 193e
0.9227348 -0.16653426 0.12387878 0.44600192 -0.6809825 0.30888224 -0.8904585 0.24454486
0.12778541 0.19467714 0.053587105 0.006931534 -0.158501 0.30521297 -0.04638477 -0.92024535
0.14814767 0.32342592 -0.1779306 -0.036440432 0.43266758 -0.588429 -0.15459055 -0.079055354
0.27396527 -0.13226694 0.61254084 -0.12205182 0.8157386 0.3124774 -0.34931794 0.5147995
0.28252828 -0.23058124 -0.5343384 0.39895362 0.23500477 0.6526282 0.4999198 0.5922678
0.55130094 -0.3215334 0.4952077 -0.1516446 0.22598974 0.4603934 0.40825555 0.047629986
0.09546917 1.4575185 -0.56610286 0.089872755 -0.18848762 0.35771635 0.1270502 0.45386764
0.27527195 0.157912 -0.8989165 0.5184939 0.2791478 0.33272982 -0.52568877 -0.078650765
0.21548766 -0.41075936 0.05940851 0.31012952 0.098647036 -0.3352878 0.5890085 -0.21034433
0.11577774 -0.62367564 0.065627955 0.24515764 -0.17112526 -0.43631256 -0.06423908 -0.11258052
-0.04577988 0.2934151 -0.10662936 0.5318897 0.013726572 -0.40528628 -0.31243896 0.29077908
-0.011922115 -0.2050237 -0.1813494 0.29910132 0.27465698 -0.108721636 -0.04993567 0.134944
0.1123354 -1.0470247 -0.43207976 0.28745368 -0.7522138 -0.67608607 -0.4317437 0.2775244
-0.06712662 -0.5314556 0.3110778 -0.30748963 -0.5354396 -0.014307541 0.015776953 0.05402416
-0.3418996 0.4396431 -0.09187814 0.107867815 -0.33725822 -0.13250913 0.20130464 -0.26084104
0.95520693 0.16683361 -0.685443 -0.12670767 -0.7238692 0.42243794 -0.109635845 -0.51794463
-0.40631947 -0.3542259 -0.7981131 0.17940418 -0.066197455 -0.14021794 -0.027633397 -0.8053572
-0.36172614 0.3558762 0.13297912 -0.6186211 -0.31383017 0.15941937 0.63055605 0.6841004
0.11909415 0.11380144 0.136321 0.42847845 -0.052786905 0.26551527 0.5223733 0.026601693
0.1327191 -0.60880834 0.16467865 -0.0034004701 -0.40304658 0.39567843 1.1875349 0.044037696
0.29899675 -0.22664773 -0.5486195 -0.039971225 -0.42141235 0.033225536 0.06603112 -0.61236846
-0.6641138 0.067602165 0.014085262 -0.33713034 -0.24879266 -0.14712398 0.2117705 -0.3468263
0.050287843 -0.04382387 0.21860258 0.40820107 0.08213975 -0.7798207 -0.1770859 -0.060484424
-0.14557287 -0.5892148 0.06328 -0.11193984 0.5530051 -0.030795056 0.15031905 0.66278
0.03460587 0.09318717 0.29740828 0.35773134 -0.31815374 -0.24675071 -0.28082043 0.043787554
-0.21569017 -0.34200996 -0.21617179 -0.11545301 0.1860086 -0.16732569 -0.08706435 0.34313288
-0.21129608 0.036258847 0.22333626 0.3833644 -0.08751275 -0.036273457 -0.27565613 -0.41060412
0.4082959 0.12287806 -0.110989295 -0.112857975 0.29515705 -0.23936662 -0.13818374 0.03878464
0.09518705 -0.3915637 0.13392791 -0.18694574 0.08479613 -0.08047242 0.32800263 -0.0017142772
0.11048717 0.38232505 0.36112908 -0.03760032 -0.088011794 -0.4142473 0.18038347 0.70584667
-0.3699458 -1.0367353 0.10235358 -0.93075055 -0.14128631 -0.058471236 -0.0018703705 -0.12104056
-0.21527824 0.79534674 0.20845547 -0.36208802 -0.33064917 -0.13285296 -0.0023631295 0.15003428

193 f4 [2, 192, 64]
00000000: d0b3 c43b cdd0 1b3e afb2 19bf b7f9 263e
00000010: 12a0 f33d 1807 56bf 96c5 c93e bfb8 9cbe
00000020: 2c88 10bf 9aa7 0a3d 7910 c33f 4ba4 dabd
00000030: 0061 acbf 9065 2dbf 154b 22be 7fe3 2d3f
00000040: 2609 33bf 6087 1dbf 12f1 5dbf 2f9f 2cbd
00000050: 75da b23e 97fa 663f 6b34 bbbe 5088 a9bb
00000060: 25a4 c93d 9f46 6f3f 8e12 d73e 679e 93bf
00000070: aceb 20bd fc4f f63a a504 7bbc f78e d73e
00000080: 50c2 cc3d 71be 30bf a6ab 9e3e 49af e0be
00000090: 277c 6abf c2aa 21bd 488a cfbe 6d19 7cbe
000000a0: 26f1 163d d9bc d8bd 3624 15bd e093 a23e
000000b0: 5618 103e 5255 223f 8078 883f e739 8b3e
000000c0: 0f05 71bf cc50 fdbe 2e74 4e3d 3501 043f
000000d0: 6b3e 42be 1078 6fbe 1977 66bf 38e4 103f
000000e0: c269 c33e 63bb 023e b005 363d a0e0 6fbf
000000f0: 0479 cabe 550a 7b3f ef84 b73e ca89 82bf
00000100: fe98 17be 7a6e 9e3d a674 a13e 68d4 3ebe
00000110: b18d 86be 7e4b 84bf 20e9 48be 642f 22be
00000120: 6edf 14bf 3e23 663d 5a7a 9e3e 3096 293a
00000130: d5b7 39bf 7d41 8abe 21f3 f73e 3914 27bf
00000140: 2275 29be 95d1 933f 358b d9bd 822b a4bf
00000150: bbb7 edbe eb40 6b3f 32ee 0ebd 9096 db3e
00000160: b2de 26bf 46ff cebe d492 76bd f1ba d83e
00000170: e25f 6abe f4e5 92bf eb5e eabe 9686 b9bd
00000180: 2e58 5c3e 775b 19bf f4ce 3c3e 6157 cbbe
00000190: d77a 6ebe 59bc d6bd 32ee 973d 76df dd3e
000001a0: d1ad 10bf 3d60 8a3e 5a4d 07bf 8e8e 5fbd
000001b0: 7e0d ee3d 2631 e93e 9b3a 2ebf 1353 b7bd
000001c0: de53 33bf 1626 923e 8fa2 3ebe ea99 023e
000001d0: 55c6 86bd 8054 383f 3b0d f43d 8274 933c
000001e0: d970 debd 4e3c 283e 9287 8cbe 40c2 80be
000001f0: 516b 67be bac5 4b3f 2319 d93e 47ae c9bd
00000200: 2ee9 33bf 7f7c a43f 7f1c 4abe 045c 1b3f
00000210: c9a7 3bbe 7985 4bbe e001 52bf cd17 5fbf
00000220: 8eb4 f63e ea78 1cbf 78d7 9a3c e427 ba3e
00000230: 7c11 5f3f 978f 043f 98d7 dd3e 02a3 92bf
00000240: 73c0 79be 1d24 1fbf 70ff 9bbd ac87 90bf
00000250: a8be 083e d507 b63e bca0 bcbe 62a0 bf3e
00000260: aaee 39be 344c acbe c993 b4be 9a7c 34be
00000270: 9b55 4a3c b5f5 f73e d5ad bbbe 84f4 433e
00000280: fbac 5f3e de15 f5be 5412 743e 72ba 23bf
00000290: 1009 32be c488 20bf a852 f2be 51cf 273f
000002a0: 4b73 d03e b5a3 383f ea90 c0be 27bf a2be
000002b0: 3c5f e1be 3910 1c3e bf9f 1f3f bccd a1bd
000002c0: a78e 073f a898 bebe d96b a53e ae53 813e
000002d0: f6a5 903b 543e 1a3f 7717 f1be 9a1b 41be
000002e0: bbff 5ebf f2a6 73bf 151e 0a3f 9ade 26be
000002f0: 7192 adbc f110 59bf 3997 0c3e ceb9 f5be
00000300: f9e1 19bf 71f1 53bc 4882 97be a5ad 57be
00000310: f2fc 433f e189 ddbe 2779 853e 9792 8b3e
00000320: 8429 4dbf ff2f 4e3e 1a3d 25be a96b 4ebe
00000330: 7290 9b3b 8c0f 35bf 41b8 803d 881f bc3c
00000340: 38f7 59bd eb7d 073e 1fbe b8be e185 77bf
00000350: 6d64 473f 0f7e 25bf eef8 96be e90b d9bd
00000360: d01e 643e 506d 1b3f aac3 ab3d 34f0 53bf
00000370: 3093 47bf fd92 e9bd 7f43 66bf 6fb9 01bf
00000380: 12b5 653e 1f5c 17bf d216 873d a02f b7bd
00000390: ab34 fabe e2a8 523e aa58 94bf b97d 9e3e
000003a0: 3e35 463f cbfc 3e3f 502c 2abf 43d9 953e
000003b0: 9c14 5d3e 3c7f 363e ac4e 193e 8b65 703d
000003c0: 7949 91be 2814 80bf 3b66 cb3e 640e 263f
000003d0: cacc aebe 5763 a13f 3df5 4bbf 82a8 bb3e
000003e0: 072f 083e 6ee7 71bf 8567 16be 5b77 66bf
000003f0: ac89 61bd ec08 4abe c071 963e 749d 78be
0.0060028806 0.1521637 -0.60038275 0.16306196 0.11895765 -0.83604574 0.3940856 -0.306097
-0.5645778 0.033851244 1.5239402 -0.10675868 -1.3467102 -0.677331 -0.15848954 0.67925256
-0.69935834 -0.6153469 -0.8669597 -0.042143997 0.34932294 0.9022612 -0.3656343 -0.0051737204
0.09845761 0.93467134 0.42006344 -1.1532716 -0.039287254 0.0018792148 -0.015320932 0.4210126
0.09998 -0.6904059 0.30990332 -0.43883732 -0.9159569 -0.039469488 -0.40535188 -0.24619074
0.03685107 -0.10582895 -0.036411487 0.31753445 0.14071783 0.6341144 1.0661774 0.27192613
-0.94148344 -0.49475706 0.050403766 0.5156434 -0.18969123 -0.23385644 -0.9002548 0.56598234
0.38166624 0.12766795 0.044439018 -0.93702126 -0.39545453 0.9806264 0.35843608 -1.01983
-0.14804456 0.077359155 0.31534308 -0.18635714 -0.26279977 -1.0335538 -0.1962018 -0.1583839
-0.58153427 0.056185953 0.30952722 0.0006469218 -0.7254613 -0.2700309 0.4842768 -0.6526523
-0.16548589 1.1548334 -0.10622255 -1.2825778 -0.46429238 0.9189593 -0.03489513 0.42888308
-0.65183556 -0.40429133 -0.06019862 0.42330125 -0.22888139 -1.1476426 -0.45775542 -0.09058873
0.21518013 -0.5990519 0.18438321 -0.39715102 -0.23289047 -0.10485143 0.07418479 0.4333455
-0.5651522 0.2702655 -0.52852404 -0.05457931 0.11623667 0.4554531 -0.68058175 -0.08951392
-0.70049846 0.28544682 -0.18616699 0.12754026 -0.065807976 0.72003937 0.11916586 0.017999891
-0.10861368 0.16429254 -0.27447182 -0.251482 -0.22599532 0.7959858 0.4240199 -0.09847694
-0.7027768 1.2850493 -0.19737433 0.6068728 -0.18325724 -0.19875135 -0.8203411 -0.8714569
0.48184627 -0.61122 0.018901572 0.3635856 0.87136054 0.517816 0.43328547 -1.1455996
-0.2438982 -0.6216448 -0.0761708 -1.1291404 0.1335398 0.3555285 -0.3684138 0.3742705
-0.1815745 -0.33651888 -0.35269 -0.17625657 0.0123495115 0.48429647 -0.3665606 0.19136244
0.2184333 -0.47868246 0.23835117 -0.6395637 -0.1738627 -0.6270869 -0.47328687 0.65550715
0.40712962 0.721248 -0.3761056 -0.31786463 -0.4401797 0.15240563 0.6235313 -0.07900569
0.52952045 -0.37225842 0.32308844 0.25259155 0.0044143153 0.60251355 -0.47088215 -0.18858185
-0.87108964 -0.95176613 0.5395215 -0.16295853 -0.021187993 -0.84791476 0.13729562 -0.4799332
-0.6011043 -0.012935982 -0.29591584 -0.21062334 0.7655784 -0.43269256 0.26068994 0.27260277
-0.8014147 0.20135497 -0.1613659 -0.20158257 0.004747444 -0.7072685 0.06285144 0.022964254
-0.05321428 0.13231628 -0.3608255 -0.9668866 0.7788761 -0.64645475 -0.29486793 -0.10597975
0.22277379 0.6071367 0.08386929 -0.82788396 -0.77958965 -0.11404989 -0.8994674 -0.50673574
0.22432354 -0.5912494 0.065961495 -0.089446306 -0.48868307 0.20572236 -1.1589558 0.30955294
0.7742499 0.7460448 -0.66473866 0.2926732 0.21589893 0.17821974 0.14971417 0.05869059
-0.28376368 -1.0006151 0.39726433 0.6486571 -0.34140617 1.2608441 -0.7967108 0.36652
0.1329919 -0.9449376 -0.14687927 -0.9002587 -0.055062935 -0.19729966 0.2938366 -0.24278814

234 f4 [2, 384]
00000000: fed6 d1be cfbe 04bf ffc3 60be b517 5b3e
00000010: a4bf 243e f718 24bf 8936 cf3e 469d 713e
00000020: b138 c7be 76ba b4be 93df bebe 83f6 823e
00000030: a78f a03e a883 d33d bf60 a33e ca3c e6bc
00000040: a781 0ebf 4b25 dc3e 659f e1bc 26e3 aabe
00000050: df2c afbe e312 ba3e a343 95bd 1931 94bd
00000060: 26d8 623c 5d25 0fbf e4f5 393d 761d f3be
00000070: aeb4 8cbe 86c9 23bf 3276 8d3e 5994 8bbc
00000080: b178 4ebc 8be0 93be 54d5 b6be dbcf 38bf
00000090: 2f65 08bf 56d1 c7be 9b64 8c3d a047 10bf
000000a0: 9925 80bd 181c 1d3e 97d0 33be fead ebbc
000000b0: ab95 7c3d db77 3cbf 4328 c93d 6e6d 293d
000000c0: 9f13 10bd 577b 3e3e d950 71be bf88 0b3f
000000d0: de97 fd3b c8d6 b43e 5939 71be 6fe1 3c3f
000000e0: 4511 15be fbba 243e 46f6 8bbe ba88 4a3f
000000f0: 1f88 77be 6d8b 04bf 7c81 8abe 9e95 b2be
00000100: fdcb 9a3d 1c45 013e 78a6 fbbd 0591 afbd
00000110: aa38 433e 8686 423e fe53 01bd 5797 c5bd
00000120: 9e2e ce3e c79d 813e 65d0 c83d 4ff9 aebd
00000130: 5e51 9bbd c8f9 6bbd 3e67 f53d ca30 08bc
00000140: a86a 8a3e d8f3 1a3c d238 8abd e66f d1bd
00000150: 2118 083f af51 9d3e 5c5e f0bd 7e46 523b
00000160: efa3 b2bd 20a0 1b3e 8815 a03d 54dd c7ba
00000170: ec42 833e 008f b33d 48bb 3f3c 582a 86bc
00000180: 50dd 0e3e 7302 a8bd 0b03 923e b7f4 0e3e
00000190: 045e 2a3e 6b51 90bd 3bbf 433e fb0c 003e
000001a0: 490d 15be 7e17 453e b71a 37bd 4db4 cebd
000001b0: b99d 813d c6b1 c33d e881 b03d c996 3fbd
000001c0: 7892 393e e6cb 04be e09c 84bc c48b f9bd
000001d0: 5018 7d3c 4817 f73e 828d 43bb 96af a83d
000001e0: 8216 8b3d f912 413e 6a87 db3e b68a a4bd
000001f0: d292 9c3d 3445 353c 7ef6 e4bd d7bc 12be
00000200: 33fa 0ebe c092 74bd 5d95 b5bc ec81 2dbd
00000210: 7b7e 2fbd 3694 2cbe 6b95 55be ae0e d4bd
00000220: ff50 29be 8b0a e53d ccf4 ff3c 60f4 8bbd
00000230: 9eb5 f6bc aaaf 87bc cb3f 253c a5ff 95bd
00000240: c803 d13d b99c 57be 681e df3d 091b 193e
00000250: 6c70 4fbe 1e2c 473c 122d 17bd 6f8e e9bc
00000260: bf28 26bd c6f7 5cbe 3a84 c2bd 6d66 3d3e
00000270: cbec 8a3e 8f71 3abe 70c8 3fbd c5d2 97bd
00000280: 4cd6 043c c115 da3e fe9e 843d 62af 2d3e
00000290: f501 703e a9b4 afbd 53bd 903c df65 8fbc
000002a0: a1fb b23d 0ab2 433d 2984 963d 0047 8f3c
000002b0: fb61 063d 4a5d 223e 5a82 573e 5b4a 123e
000002c0: 8a12 41bc 7999 70bd a81a cbbd 0eda fabd
000002d0: afea a03c eeac 35be 77bc 293e 2b78 323e
000002e0: a8cc e2ba f12c b1bc da67 8abd ed7e 2c3e
000002f0: dc2e 1ebd 1113 453d ec93 363d f2da 463c
00000300: fab8 04bf 6ba2 cebe a5f5 31be f205 9b3e
00000310: 48c6 1b3e 2b4f 10bf 8605 983e c009 e83d
00000320: 9762 87be 1f89 9bbe 5438 c5be de15 193e
00000330: 7275 833e c518 aa3d 2892 be3e 8127 b6bd
00000340: 9311 16bf ad50 e13e 6039 c1bd d8cd 90be
00000350: cc93 90be 9ce1 2f3e 596d ad3c 29fc 92bd
00000360: 01f6 b53c ff2a 14bf dfa5 a9bd 46da cfbe
00000370: 782d aabe ef75 0abf beaa e93e cc98 74be
00000380: 840d a3ba 9f92 24be 7756 bbbe 3902 22bf
00000390: a4b4 0ebf baf8 ddbe 18b4 d23d ffb5 c2be
000003a0: 9624 b8bd 61a9 a63e 2dc2 21be b84c 1c3e
000003b0: d7e9 9ebd 964d 4abf 5ce0 c83d 9a47 043e
000003c0: 2845 5f3d 355b ed3d 74ad 54be a656 cf3e
000003d0: 2a6d 39be 5e72 c93e c257 58be 4755 1f3f
000003e0: d53d 9ebd 339c 5a3e a03e eebe 7ce8 4d3f
000003f0: a908 8bbe 1ac8 fbbe 15a7 07be fa4a 73be
-0.4098434 -0.5185365 -0.21949767 0.21395762 0.1608873 -0.64100593 0.40471295 0.23595151
-0.3891044 -0.35298508 -0.3727995 0.255787 0.31359598 0.10327846 0.3190975 -0.028105158
-0.55666584 0.42997202 -0.027541826 -0.33376426 -0.3421392 0.36342534 -0.07288291 -0.07235927
0.013845479 -0.55916387 0.045400515 -0.47483414 -0.27481598 -0.63979375 0.27629238 -0.017038511
-0.012602017 -0.2888225 -0.3570963 -0.7219216 -0.53279394 -0.39026898 0.068551265 -0.5635929
-0.06257171 0.15342748 -0.1756004 -0.02876949 0.061666172 -0.73620385 0.098221324 0.041364126
-0.035174962 0.18601738 -0.23565997 0.5450553 0.0077390512 0.35320115 -0.23557033 0.73781484
-0.14557369 0.16086952 -0.2733633 0.7911488 -0.2417302 -0.51775247 -0.27051914 -0.34879774
0.07558439 0.1262402 -0.12287611 -0.08572582 0.19064584 0.18996629 -0.03157424 -0.096480064
0.4026994 0.25315687 0.09805373 -0.085436456 -0.07583879 -0.057611257 0.119825825 -0.0083124135
0.27034497 0.009457551 -0.06749119 -0.10226421 0.5316182 0.30726382 -0.117367476 0.0032085474
-0.08722674 0.15197802 0.07816607 -0.0015248456 0.25636995 0.087675095 0.011702366 -0.016377613
0.13951612 -0.08203592 0.28517947 0.13960539 0.16637427 -0.07046779 0.19115917 0.12504952
-0.14555849 0.19247243 -0.04470321 -0.100929834 0.06328911 0.09555392 0.08618528 -0.04677466
0.1812228 -0.12968406 -0.016188085 -0.12184861 0.015447691 0.4825995 -0.0029838984 0.08236615
0.067914024 0.18854894 0.4287675 -0.080342695 0.07645191 0.011063863 -0.11179827 -0.14329849
-0.13962631 -0.059710264 -0.022165949 -0.04236023 -0.04284523 -0.16853413 -0.2085778 -0.103543624
-0.16534804 0.111836515 0.031244658 -0.0683372 -0.030115899 -0.016563255 0.01008601 -0.07324151
0.10205799 -0.21055879 0.108944714 0.1495172 -0.2025773 0.012156514 -0.036908217 -0.0285103
-0.040566202 -0.21578893 -0.094978765 0.18496104 0.27133784 -0.18207382 -0.04682201 -0.07413248
0.008107733 0.42594722 0.06475638 0.16961434 0.23438247 -0.0857938 0.017668402 -0.01750463
0.08739401 0.047777213 0.07349426 0.01748991 0.032808285 0.158559 0.21045819 0.14286177
-0.011784205 -0.058740113 -0.09917194 -0.12248622 0.019643156 -0.17741749 0.165758 0.17428653
-0.0017303424 -0.021627875 -0.06758089 0.16845293 -0.038618907 0.048113886 0.044574663 0.012137162
-0.5184475 -0.4035829 -0.17378862 0.30277973 0.15212357 -0.563708 0.29691714 0.11329985
-0.26442406 -0.30378053 -0.38519537 0.14949748 0.2567554 0.08305506 0.37220883 -0.088942535
-0.58620566 0.44006863 -0.094347715 -0.28282046 -0.2823776 0.17175907 0.021170305 -0.07177002
0.02221203 -0.57878107 -0.082835905 -0.40596217 -0.33237815 -0.540862 0.45638078 -0.23886412
-0.0012439941 -0.16071557 -0.36589405 -0.6328464 -0.55744386 -0.43353826 0.102882564 -0.38029477
-0.08991353 0.325511 -0.15796728 0.15263641 -0.07759445 -0.79024637 0.09808418 0.12917939
0.054509312 0.11589662 -0.20769292 0.40495795 -0.18108049 0.39345068 -0.21127227 0.622395
-0.07726637 0.21348648 -0.46532154 0.8043287 -0.27155045 -0.49176103 -0.1324733 -0.2375907

235 f4 [2, 192, 128]
00000000: 7e99 ef3e e084 313e 6a2b 1c3f d928 bd3e
00000010: 9ed1 d23d 832f d1bf f128 a83e 69b6 83bd
00000020: 082e 77bd 4460 75bf cb56 833e 03f3 0a3f
00000030: dc85 23bf 9927 113f de76 b73e 566c e5be
00000040: 353a 133f cef2 893e 82dd 363c fd46 273f
00000050: 2420 c9be 1736 d13e c543 b93e 8e5c 31be
00000060: 34e8 fabd 3a35 4f3e 7fcf 473e 3564 503e
00000070: 2fb4 833e 6ca0 8c3e 1d19 13bf 9737 27bf
00000080: 8db7 f53e 20c4 5c3e e8e8 613e 49cf e1bd
00000090: cf2b 333e 5d50 1b3e ad7f b5be c079 9dbd
000000a0: 2258 1abf ee57 cb3e 6b7d 5b3f 6915 593e
000000b0: de29 56bf 734e fc3e 3764 343e c001 2abc
000000c0: 4b3a 98be b72b ed3d d3c4 ef3d f801 bfbd
000000d0: 5fdc 1cbe 4d6e 16bf e5bc 80bf eae3 f4be
000000e0: 1498 c23c 4cf3 553e 3474 233f 7ffa 44be
000000f0: 39d2 ab3e 89b2 343d 3e86 b03e 3abe a1be
00000100: ba26 4fbf 7a3e 183f dcf6 9b3e 90f0 cdbe
00000110: 9a6f b83e df68 f4be fe84 fe3e 9f17 20be
00000120: 974d 063f 050d 2d3d 5385 22be a14d 9dbf
00000130: f693 b3be bab6 abbe d6c6 13bc 6e5e 5fbe
00000140: 14fb 5c3f 11ff 743f 1e0a dfbe 9398 e0be
00000150: 12c8 efbe e309 843f 13e4 ed3d 272e 7a3f
00000160: 2ffb e0be 728c 12be 003e 0438 e69b 5f3e
00000170: 6dcf d4bd 5a5e 32be a667 d63e f667 c2be
00000180: 440d 823e 356d 4abf 82f2 b0be 4362 163e
00000190: a857 9dbe 608d 7b3e ad8f 653e 9ad5 a03f
000001a0: e831 2f3e 7936 223f 2804 c3bd 1065 073f
000001b0: 6f4f 363e 7907 45be 4b27 4a3c 6a01 673e
000001c0: b8c9 9b3d 0d52 863e 996d 81be 3572 b03e
000001d0: e566 943e 8971 1c3e bded e43e db45 dc3e
000001e0: 74ac e5bd e81e 38bf 23fa 61be e02a 8cbe
000001f0: 7a43 1e3f e4de 26be 8100 bd3e f138 43bf
00000200: a6bf 52bf f9ac 77bf b7f5 bf3e 3e62 adbe
00000210: b590 8e3e e578 733e 0e66 bbbe 8b7c 873e
00000220: 88c9 2fbe d784 ce3e ef3a 753e bcbf a43e
00000230: 7f79 a5be 37ae 343e 1a44 95bd 8dcb d23e
00000240: 5c26 35bf 36be 4e3e 0e56 57be b0f9 9bbf
00000250: 3f8b 3a3e 1a9b a23e 4ad5 4ebe 4790 3d3f
00000260: 753a 37bb 30f9 f93c 2e02 093f c93e 44be
00000270: cde8 e0be 2047 383f 0933 e3be 2222 5abe
00000280: 897a 1cbf cdbd bdbe e3a0 8b3e edcf 22bd
00000290: 0770 923e c60b 3bbe e926 ff3c 141a 17bf
000002a0: 7dfd cd3e 3433 ccbc 3bb9 dbbc b9ea 2b3d
000002b0: 74b4 25ba 5a04 5c3f f02f b83e 5ad5 c73e
000002c0: 046d 47be 3bc8 533f 0e25 8f3e 208e 963e
000002d0: d8b3 efbe 9088 03bf 41af 1dbf a5f5 0bbf
000002e0: 57b0 393f d171 c8be 3b4f 083f 0b9e 0fbf
000002f0: f23c a63e 7d00 053f dff5 4d3e 8da3 97be
00000300: 7ed0 583e 5f11 b93d f9e3 dabd 4fda 5a3f
00000310: 1cbf 293e 3bba cabe bdfe de3b bbd5 783e
00000320: 2733 1e3f 00a0 4f3f b1ed 383e e916 99be
00000330: 95db 183f fc8b 9a3e 0d38 0abf 2bdc 243e
00000340: c207 fb3c 61ed 64be f5a9 043e b1da 28bd
00000350: 3042 7c3e 5a0e 463d c9ea 19be 8158 503f
00000360: 4ff2 9dbc c83f 053f b8d6 273f e94f e33d
00000370: 64db 46be d1fd c4be 7588 bf3e 4674 123e
00000380: 9169 f8be d42f 35bd d77b 23bb 9e27 cabe
00000390: 6972 4c3e bbb0 81be 87b8 273e 57b4 46be
000003a0: 9572 693c 50dc da3e ca43 2dbe b829 7e3d
000003b0: dc9f 0d3f d725 6f3f 95b1 1bbe 9c23 4fbe
000003c0: e5c3 0ebe 8fba 1ebe 23e8 b33e 3448 c3be
000003d0: 074e b73e 49f0 b3be ca03 fd3e 9030 f9bd
000003e0: a4e3 6cbf 0964 c13e 08b1 5a3e f643 2d3e
000003f0: 2c3d 8abe f293 f9be 822e 4d3d fc29 3f3f
0.46796793 0.17335844 0.61003745 0.36945227 0.102938876 -1.6342624 0.32843736 -0.06431276
-0.060346633 -0.95850015 0.25652155 0.54277056 -0.6387613 0.56701046 0.35832876 -0.44809216
0.5751069 0.26943058 0.01116121 0.65342695 -0.39282334 0.4086158 0.36184517 -0.17320463
-0.122513205 0.20235148 0.19512747 0.20350726 0.25723407 0.27466142 -0.57460195 -0.653192
0.479916 0.21559191 0.22061503 -0.11025865 0.1749718 0.15167375 -0.3544897 -0.076892376
-0.6029073 0.39715523 0.8573825 0.21199574 -0.83657634 0.49278602 0.17616354 -0.010376394
-0.29731974 0.115806036 0.11707463 -0.093265474 -0.1531844 -0.58762056 -1.0057646 -0.47830135
0.023754157 0.20893592 0.63849187 -0.19236182 0.33558825 0.044115577 0.3447742 -0.31590444
-0.8091847 0.5947033 0.30461776 -0.40222597 0.36022645 -0.4773626 0.4971084 -0.1563401
0.5246214 0.042248745 -0.15871172 -1.2289315 -0.35073823 -0.33537847 -0.009019574 -0.21813366
0.86320615 0.957017 -0.43562406 -0.43866405 -0.4683233 1.0315517 0.11615767 0.9772667
-0.43941638 -0.14311388 3.1528994e-05 0.21836814 -0.10391126 -0.17418805 0.41875952 -0.3796994
0.25400746 -0.79072887 -0.3456002 0.14685921 -0.3073094 0.24565649 0.22418089 1.2565186
0.17108881 0.6336437 -0.09522277 0.52888584 0.17803739 -0.19241132 0.01233847 0.22559133
0.07606834 0.26234475 -0.2527893 0.34462133 0.28984752 0.15277685 0.4471263 0.43022045
-0.112145334 -0.7192216 -0.22068076 -0.2737646 0.6182171 -0.16295964 0.36914447 -0.7625876
-0.8232368 -0.9674831 0.37492153 -0.33864015 0.27844778 0.23776586 -0.366013 0.26462206
-0.17166722 0.40335724 0.23948263 0.32177532 -0.32319257 0.17644583 -0.0728838 0.41170922
-0.70761657 0.20189747 -0.21028921 -1.2185574 0.1821718 0.31758958 -0.20198551 0.74048275
-0.0027958427 0.03051433 0.5351895 -0.19164576 -0.43927613 0.7198353 -0.44374874 -0.21302083
-0.61124474 -0.3705887 0.27271184 -0.039749075 0.28601095 -0.1826621 0.031146483 -0.5902417
0.4023246 -0.02492676 -0.026821723 0.041971896 -0.000632114 0.8594414 0.35974073 0.39029962
-0.1947518 0.827274 0.27957958 0.29405308 -0.46816897 -0.5138025 -0.6159554 -0.546717
0.725347 -0.39149335 0.53245896 -0.5610053 0.32468373 0.5195387 0.20113324 -0.29616967
0.21173283 0.090365164 -0.106880136 0.8548936 0.16576809 -0.39595208 0.0068052695 0.24300282
0.617968 0.81103516 0.18059422 -0.29900292 0.59710056 0.30184925 -0.53991777 0.16099612
0.030643348 -0.22356178 0.12955458 -0.041224185 0.24634624 0.04835353 -0.1503097 0.81385046
-0.01928058 0.5205045 0.6556201 0.11099226 -0.19419628 -0.38474897 0.37408796 0.14302167
-0.4851804 -0.044235066 -0.002494564 -0.3948335 0.19965519 -0.25330147 0.16378985 -0.19404732
0.01424851 0.4274621 -0.1692039 0.062051505 0.5532205 0.93417114 -0.15204461 -0.20228428
-0.13941915 -0.15500854 0.35138044 -0.38141024 0.35801718 -0.3514426 0.49416953 -0.12167466
-0.9253485 0.37771633 0.21356595 0.16920456 -0.26999795 -0.48745686 0.05009318 0.7467344
